…
        "outputId": "9cad0097-f8e9-4a31-e398-7048bdcca7fd",
        "colab": {
          "base_uri": "https://localhost:8080/",
          "height": 472
        }
      },
      "source": [
        "model.summary()"
      ],
      "execution_count": null,
      "outputs": [
        {
          "output_type": "stream",
          "text": [
            "_________________________________________________________________\n",
            "Layer (type)                 Output Shape              Param #   \n",
            "=================================================================\n",
            "dense_53 (Dense)             (None, 5)                 30        \n",
            "_________________________________________________________________\n",
            "dropout_11 (Dropout)         (None, 5)                 0         \n",
            "_________________________________________________________________\n",
            "dense_54 (Dense)             (None, 16)                96        \n",
            "_________________________________________________________________\n",
            "dropout_12 (Dropout)         (None, 16)                0         \n",
            "_________________________________________________________________\n",
            "dense_55 (Dense)             (None, 4)                 68        \n",
            "_________________________________________________________________\n",
            "encoded (Dense)              (None, 2)                 10        \n",
            "_________________________________________________________________\n",
            "dense_56 (Dense)             (None, 4)                 12        \n",
            "_________________________________________________________________\n",
            "dense_57 (Dense)             (None, 16)                80        \n",
            "_________________________________________________________________\n",
            "dense_58 (Dense)             (None, 5)                 85        \n",
            "=================================================================\n",
            "Total params: 381\n",
            "Trainable params: 381\n",
            "Non-trainable params: 0\n",
            "_________________________________________________________________\n"
          ],
          "name": "stdout"
        }
      ]
    },
    {
      "cell_type": "code",
      "metadata": {
…
          "base_uri": "https://localhost:8080/",
          "height": 399
        }
      },
      "source": [
        "encoder = Model(model.input, model.get_layer('encoded').output)\n",
        "encoder.summary()\n"
      ],
      "execution_count": null,
      "outputs": [
        {
          "output_type": "stream",
          "text": [
            "_________________________________________________________________\n",
            "Layer (type)                 Output Shape              Param #   \n",
            "=================================================================\n",
            "dense_53_input (InputLayer)  (None, 5)                 0         \n",
            "_________________________________________________________________\n",
            "dense_53 (Dense)             (None, 5)                 30        \n",
            "_________________________________________________________________\n",
            "dropout_11 (Dropout)         (None, 5)                 0         \n",
            "_________________________________________________________________\n",
            "dense_54 (Dense)             (None, 16)                96        \n",
            "_________________________________________________________________\n",
            "dropout_12 (Dropout)         (None, 16)                0         \n",
            "_________________________________________________________________\n",
            "dense_55 (Dense)             (None, 4)                 68        \n",
            "_________________________________________________________________\n",
            "encoded (Dense)              (None, 2)                 10        \n",
            "=================================================================\n",
            "Total params: 204\n",
            "Trainable params: 204\n",
            "Non-trainable params: 0\n",
            "_________________________________________________________________\n"
          ],
          "name": "stdout"
        }
      ]
    },
    {
      "cell_type": "code",
      "metadata": {
…
